{"class_name": "Sequential", "keras_version": "1.2.0", "config": [{"class_name": "Convolution3D", "config": {"W_constraint": null, "b_constraint": null, "name": "conv1", "kernel_dim2": 3, "kernel_dim1": 3, "activation": "relu", "trainable": true, "dim_ordering": "th", "kernel_dim3": 3, "subsample": [1, 1, 1], "init": "glorot_uniform", "bias": true, "nb_filter": 64, "input_dtype": "float32", "border_mode": "same", "batch_input_shape": [null, 3, 16, 112, 112], "W_regularizer": null, "activity_regularizer": null, "b_regularizer": null}}, {"class_name": "MaxPooling3D", "config": {"name": "pool1", "trainable": true, "dim_ordering": "th", "pool_size": [1, 2, 2], "strides": [1, 2, 2], "border_mode": "valid"}}, {"class_name": "Convolution3D", "config": {"W_constraint": null, "b_constraint": null, "name": "conv2", "kernel_dim2": 3, "kernel_dim1": 3, "activation": "relu", "trainable": true, "dim_ordering": "th", "kernel_dim3": 3, "subsample": [1, 1, 1], "init": "glorot_uniform", "bias": true, "nb_filter": 128, "b_regularizer": null, "W_regularizer": null, "activity_regularizer": null, "border_mode": "same"}}, {"class_name": "MaxPooling3D", "config": {"name": "pool2", "trainable": true, "dim_ordering": "th", "pool_size": [2, 2, 2], "strides": [2, 2, 2], "border_mode": "valid"}}, {"class_name": "Convolution3D", "config": {"W_constraint": null, "b_constraint": null, "name": "conv3a", "kernel_dim2": 3, "kernel_dim1": 3, "activation": "relu", "trainable": true, "dim_ordering": "th", "kernel_dim3": 3, "subsample": [1, 1, 1], "init": "glorot_uniform", "bias": true, "nb_filter": 256, "b_regularizer": null, "W_regularizer": null, "activity_regularizer": null, "border_mode": "same"}}, {"class_name": "Convolution3D", "config": {"W_constraint": null, "b_constraint": null, "name": "conv3b", "kernel_dim2": 3, "kernel_dim1": 3, "activation": "relu", "trainable": true, "dim_ordering": "th", "kernel_dim3": 3, "subsample": [1, 1, 1], "init": "glorot_uniform", "bias": true, "nb_filter": 256, "b_regularizer": null, "W_regularizer": null, "activity_regularizer": null, "border_mode": "same"}}, {"class_name": "MaxPooling3D", "config": {"name": "pool3", "trainable": true, "dim_ordering": "th", "pool_size": [2, 2, 2], "strides": [2, 2, 2], "border_mode": "valid"}}, {"class_name": "Convolution3D", "config": {"W_constraint": null, "b_constraint": null, "name": "conv4a", "kernel_dim2": 3, "kernel_dim1": 3, "activation": "relu", "trainable": true, "dim_ordering": "th", "kernel_dim3": 3, "subsample": [1, 1, 1], "init": "glorot_uniform", "bias": true, "nb_filter": 512, "b_regularizer": null, "W_regularizer": null, "activity_regularizer": null, "border_mode": "same"}}, {"class_name": "Convolution3D", "config": {"W_constraint": null, "b_constraint": null, "name": "conv4b", "kernel_dim2": 3, "kernel_dim1": 3, "activation": "relu", "trainable": true, "dim_ordering": "th", "kernel_dim3": 3, "subsample": [1, 1, 1], "init": "glorot_uniform", "bias": true, "nb_filter": 512, "b_regularizer": null, "W_regularizer": null, "activity_regularizer": null, "border_mode": "same"}}, {"class_name": "MaxPooling3D", "config": {"name": "pool4", "trainable": true, "dim_ordering": "th", "pool_size": [2, 2, 2], "strides": [2, 2, 2], "border_mode": "valid"}}, {"class_name": "Convolution3D", "config": {"W_constraint": null, "b_constraint": null, "name": "conv5a", "kernel_dim2": 3, "kernel_dim1": 3, "activation": "relu", "trainable": true, "dim_ordering": "th", "kernel_dim3": 3, "subsample": [1, 1, 1], "init": "glorot_uniform", "bias": true, "nb_filter": 512, "b_regularizer": null, "W_regularizer": null, "activity_regularizer": null, "border_mode": "same"}}, {"class_name": "Convolution3D", "config": {"W_constraint": null, "b_constraint": null, "name": "conv5b", "kernel_dim2": 3, "kernel_dim1": 3, "activation": "relu", "trainable": true, "dim_ordering": "th", "kernel_dim3": 3, "subsample": [1, 1, 1], "init": "glorot_uniform", "bias": true, "nb_filter": 512, "b_regularizer": null, "W_regularizer": null, "activity_regularizer": null, "border_mode": "same"}}, {"class_name": "ZeroPadding3D", "config": {"padding": [0, 1, 1], "trainable": true, "name": "zeropadding3d_1"}}, {"class_name": "MaxPooling3D", "config": {"name": "pool5", "trainable": true, "dim_ordering": "th", "pool_size": [2, 2, 2], "strides": [2, 2, 2], "border_mode": "valid"}}, {"class_name": "Flatten", "config": {"trainable": true, "name": "flatten_1"}}, {"class_name": "Dense", "config": {"W_constraint": null, "b_constraint": null, "name": "fc6", "activity_regularizer": null, "trainable": true, "init": "glorot_uniform", "bias": true, "input_dim": 8192, "b_regularizer": null, "W_regularizer": null, "activation": "relu", "output_dim": 4096}}, {"class_name": "Dropout", "config": {"p": 0.5, "trainable": true, "name": "dropout_1"}}, {"class_name": "Dense", "config": {"W_constraint": null, "b_constraint": null, "name": "fc7", "activity_regularizer": null, "trainable": true, "init": "glorot_uniform", "bias": true, "input_dim": 4096, "b_regularizer": null, "W_regularizer": null, "activation": "relu", "output_dim": 4096}}, {"class_name": "Dropout", "config": {"p": 0.5, "trainable": true, "name": "dropout_2"}}, {"class_name": "Dense", "config": {"W_constraint": null, "b_constraint": null, "name": "fc8", "activity_regularizer": null, "trainable": true, "init": "glorot_uniform", "bias": true, "input_dim": 4096, "b_regularizer": null, "W_regularizer": null, "activation": "softmax", "output_dim": 487}}]}